GlaDOS.tflite (tflite, 206964 bytes, 9 tensors)

arith.constant f4 [1, 32]
0	0x3e2a968e	0.16658995
1	0x3de621a4	0.11236885
2	0xbeb256fe	-0.34831995
3	0x3dbdc667	0.09266358
4	0xbeb71d10	-0.3576436
5	0xbea7e0fd	-0.3278884
6	0x3d8a23e7	0.06745129
7	0x3d4285b0	0.047490776
8	0xbeaec9e5	-0.34138408
9	0x3e2cdb19	0.16880454
10	0x3e518b71	0.20463349
11	0x3e09423d	0.13404174
12	0xbebff651	-0.37492612
13	0x3e098637	0.13430105
14	0x3e83853a	0.2568758
15	0xbec9f95c	-0.3944806
16	0xbeca10ba	-0.39465886
17	0x3c4dcf6f	0.012561663
18	0x3e84b433	0.2591873
19	0x3d9f0642	0.077648655
20	0x3e77bdf0	0.24193549
21	0xbdbef65b	-0.09324332
22	0xbebffbd1	-0.37496808
23	0x3e49d7bc	0.19711202
24	0x38bbd3b9	8.956291e-05
25	0x3e6dcca3	0.23222594
26	0x3e851343	0.25991258
27	0xbea833d1	-0.32852033
28	0x3e231bcf	0.15928577
29	0x3ded910c	0.11599931
30	0x3dcfcca1	0.10146452
31	0x3e9909c0	0.2989025

arith.constant1 f4 [32, 32]
0	0xbdde7a9a	-0.10863228
1	0xbdd99bc8	-0.10625416
2	0xbd69bce6	-0.057064913
3	0xbc3c78ca	-0.011503408
4	0xbb531b88	-0.0032212455
5	0xbe0dbedb	-0.13842337
6	0xbc8d7a63	-0.017270273
7	0xbd0d2b50	-0.034465134
8	0x3e0dd4c2	0.13850692
9	0x3e2c9ef0	0.16857505
10	0x3df6de33	0.120541
11	0xbd727c4c	-0.05920057
12	0xbc67ac74	-0.014140237
13	0xbd8f5dca	-0.07000311
14	0xbdb78298	-0.08960456
15	0x3d67ca86	0.056589626
16	0x3dc498fe	0.095994934
17	0x3d0b9af5	0.034083325
18	0xbd82f130	-0.06393659
19	0x3d6255dd	0.055257667
20	0xbd320a90	-0.043467104
21	0x3e21a317	0.1578487
22	0x3c0224e6	0.007943368
23	0xbd5cd024	-0.053909436
24	0x3c4050c5	0.011738007
25	0x3df1b268	0.118016064
26	0xbcfe0990	-0.03101042
27	0xbe210bd9	-0.15727176
28	0x3d413886	0.047173046
29	0x3dcbf923	0.099596284
30	0x3dd92638	0.10602993
31	0x3e18e497	0.1493095
32	0x3dbdbb4d	0.092642404
33	0xbe1b98ba	-0.1519498
34	0xbd82d210	-0.063877225
35	0x3de7f2df	0.11325621
36	0x3d4e1a62	0.05031813
37	0xbd83555b	-0.06412765
38	0x3c24630d	0.010033381
39	0xbe191b21	-0.14951755
40	0xbcf7148c	-0.030161165
41	0xbd53bd24	-0.05169405
42	0x3dcb1b7e	0.09917353
43	0x3d8f7cfd	0.070062615
44	0x3d66a63a	0.05631087
45	0x3e475ece	0.19469759
46	0xbd33a930	-0.04386252
47	0xbdf7854c	-0.12085971
48	0x3dce79df	0.10081839
49	0x3d9fa21b	0.07794591
50	0x3e1ad470	0.15120101
51	0xbb997507	-0.00468314
52	0xbdcd524a	-0.10025461
53	0x3de6a101	0.11261178
54	0x3cfb1aec	0.030652486
55	0x3d841ab9	0.064504094
56	0xbd1a35a6	-0.03764882
57	0x3d7da98e	0.061929278
58	0x3dfe739e	0.12424396
59	0x3e3170b2	0.17328146
60	0x3d8168af	0.06318795
61	0x3dcb0365	0.09912757
62	0x3dffb1a0	0.12485051
63	0x3de1d709	0.11027343
64	0xbdeb2054	-0.114807755
65	0x3d9db9e2	0.0770147
66	0x3daf073a	0.085463
67	0x3e0e80db	0.13916342
68	0xbd1a485e	-0.03766667
69	0x3e26e1cb	0.1629707
70	0x3d497279	0.049181435
71	0x3dca4c36	0.09877817
72	0xbdf377e6	-0.11888103
73	0xbdd9e8f9	-0.10640139
74	0xbe384555	-0.17995198
75	0x3d32b40a	0.04362873
76	0xbcd0c790	-0.025485784
77	0xbac1ef19	-0.0014795988
78	0x3d2dbe4e	0.042417817
79	0xbd105758	-0.035239547
80	0x3dc86097	0.09784048
81	0x3cd48c2c	0.025945745
82	0x3e1ad9aa	0.15122095
83	0x3da7ee1d	0.081997134
84	0xbdfe6a54	-0.12422624
85	0xbdbb7032	-0.09152259
86	0x3e132425	0.14369257
87	0xbdb78fde	-0.08962987
88	0xbd8f2f76	-0.06991474
89	0x3c88755d	0.016657526
90	0x3dc75f9e	0.097350344
91	0x3e0dba74	0.13840657
92	0xbe32bf91	-0.1745589
93	0x3e1b5648	0.15169632
94	0x3d8646d0	0.06556475
95	0x3d99ef4c	0.075163454
96	0xbd7d2a3d	-0.06180786
97	0x3bd5b8fa	0.006522295
98	0x3d389081	0.045059685
99	0x3e192dfd	0.1495895
100	0xbb5d55ab	-0.0033772986
101	0x3d796585	0.060887832
102	0xbde0f44c	-0.10984096
103	0x3dbc3986	0.09190659
104	0xbc73ab65	-0.014872407
105	0xbd01b789	-0.031669173
106	0xbdd29681	-0.102826126
107	0x3e1396eb	0.1441304
108	0x3e1eff33	0.15527038
109	0x3e4204d1	0.1894715
110	0xbccf5944	-0.02531112
111	0x3d97463e	0.073864445
112	0x3e2acd1c	0.16679806
113	0x3bf41b43	0.007449539
114	0xbdac5c20	-0.08416009
115	0x3e0b9376	0.1363047
116	0x3cb58718	0.022159144
117	0xbdbeec99	-0.09322471
118	0xbada605c	-0.0016660797
119	0xbd42ba17	-0.04754075
120	0x3bc20e8d	0.0059221447
121	0x3dcb875a	0.09937926
122	0xbca88f60	-0.020576179
123	0xbddf7361	-0.10910679
124	0xbd12405f	-0.03570592
125	0x3e055219	0.13019599
126	0x3e242d17	0.16032825
127	0x3dce8c1b	0.10085317
128	0xbdf148b5	-0.11781446
129	0x3e63a1fb	0.2222976
130	0xbe0d1e6a	-0.13781133
131	0xbc2eed8f	-0.010676756
132	0xbe033e49	-0.12816729
133	0xbd9edd43	-0.07757046
134	0x3dd85dc0	0.105647564
135	0xbd915ce0	-0.070977926
136	0x3d5f010e	0.054444365
137	0xbc81ef08	-0.01586105
138	0xbdeb0fc8	-0.114776194
139	0xbddd1a8b	-0.10796078
140	0xbda35db4	-0.07976857
141	0xbe461535	-0.19344027
142	0x3de380b1	0.1110853
143	0x3e068ce0	0.13139677
144	0xbe338cad	-0.17534132
145	0xbdd35935	-0.10319749
146	0xbde82c00	-0.11336517
147	0xbdb403e1	-0.08789802
148	0x3d98db2f	0.07463681
149	0xbd70f815	-0.05883034
150	0xbdd2a84d	-0.10286007
151	0x3d9b61f0	0.075870395
152	0x3ab5323e	0.0013824177
153	0xbcc7123d	-0.024300689
154	0x3ce105e4	0.02746863
155	0x3e1b0ed5	0.15142377
156	0xbdbac8a6	-0.09120302
157	0x3e229cb6	0.15880093
158	0xbc698481	-0.014252783
159	0x3c096e02	0.008388044
160	0x3e0a3bb8	0.13499343
161	0x3e085ab0	0.13315845
162	0xbd99bbc8	-0.075065196
163	0xbc00b514	-0.007855672
164	0x3dbbe25a	0.091740325
165	0x3d35d48d	0.044392157
166	0xbb1096a0	-0.0022062436
167	0xbd93e69d	-0.0722172
168	0xbd6d93d5	-0.05800231
169	0x3c229fc5	0.009925787
170	0xbe3a1373	-0.18171482
171	0x3d66c5b5	0.056340892
172	0x3e561aa2	0.20908597
173	0xbdc1bc78	-0.09459776
174	0x3de0f823	0.10984828
175	0x3bbeacd7	0.005818944
176	0xbd812df8	-0.06307596
177	0xbd5eda12	-0.054407187
178	0xbdfc8c24	-0.12331417
179	0xbe287c6f	-0.16453718
180	0xbdf2df54	-0.11859003
181	0xbd836536	-0.06415789
182	0x3c9a36ad	0.0188249
183	0x3d5afbd6	0.053462826
184	0xbd8aae37	-0.0677151
185	0x3e1ed090	0.15509248
186	0x3dcc2a1a	0.09968968
187	0xbdbb669c	-0.091504306
188	0xbd0bd1b1	-0.034135524
189	0xbd918879	-0.07106108
190	0x3d6ae27f	0.05734491
191	0x3d3384c7	0.0438278
192	0x3d80e751	0.0629412
193	0x3cc6770b	0.024226686
194	0xba123055	-0.000557666
195	0x3e036ac9	0.12833704
196	0x3da84d32	0.08217849
197	0x3d88d26d	0.066807605
198	0x3dbd4e85	0.09243492
199	0xbdac6f09	-0.08419616
200	0x3dbe5f84	0.09295562
201	0xbe1ffbc7	-0.15623389
202	0xbdaeed95	-0.08541409
203	0x3d8d2036	0.068909094
204	0x3d883d05	0.066522636
205	0xbc507574	-0.0127233155
206	0x3dd1f24b	0.10251292
207	0x3df8c9d4	0.12147871
208	0xbe21ab96	-0.15788111
209	0xbda2c582	-0.07947828
210	0x3dd2374d	0.10264454
211	0xbe0b1d21	-0.1358533
212	0x3ce86668	0.028369144
213	0xbd6426b0	-0.055700958
214	0xbd70e0a3	-0.05880798
215	0x3c9ad4e7	0.018900348
216	0x3caf865f	0.021426378
217	0xbd41a4b5	-0.047276217
218	0xbda4c603	-0.0804558
219	0x3d9db7cc	0.07701072
220	0x3dd41836	0.1035618
221	0xbe18efc5	-0.14935215
222	0x3e13c3df	0.14430188
223	0xbd045d2a	-0.03231541
224	0xbd91d0ca	-0.071199015
225	0xbdd0dbae	-0.101981506
226	0x3c5eecb2	0.013606237
227	0xbdd37390	-0.10324776
228	0x3e0b629b	0.13611834
229	0xbe03871f	-0.12844513
230	0xbe21c7f0	-0.15798926
231	0xbdd85dd6	-0.10564773
232	0xbd4571d1	-0.048204247
233	0x3dc717c0	0.09721327
234	0x3d500aeb	0.050791662
235	0x3d46092d	0.048348594
236	0x3d06eca5	0.032940526
237	0xbd8bfc7f	-0.06835269
238	0xbdc653f6	-0.09683983
239	0x3d9956e6	0.07487278
240	0xbdb03a72	-0.086048976
241	0x3dd5c48e	0.104378805
242	0x3d485852	0.048912354
243	0x3d46dc48	0.04854992
244	0x3e256d81	0.16155054
245	0xbd003cd5	-0.031308014
246	0xbdd52879	-0.1040811
247	0xbc004443	-0.007828775
248	0xbd2e0cc3	-0.04249264
249	0x3e181f59	0.14855708
250	0xbd7a86cf	-0.06116372
251	0x3db50ab4	0.08839932
252	0xbc936427	-0.017992092
253	0xbdb4b4be	-0.08823536
254	0x3ddc2ec1	0.10751105
255	0xbcdc4fa7	-0.02689345

arith.constant2 f4 [32, 1536]
0	0xbcd9fb54	-0.0266091
1	0x3c9a0142	0.018799428
2	0xbb618338	-0.0034410488
3	0xbd30161c	-0.042989835
4	0xbc00af39	-0.007854276
5	0xbbd20a91	-0.006409951
6	0x3c6414c7	0.013920969
7	0x3a80bcac	0.0009821854
8	0xbc204f01	-0.009784461
9	0xbcb6fad4	-0.022336401
10	0x3c3665d8	0.01113268
11	0x3c4d561e	0.012532739
12	0xbc35570b	-0.011068116
13	0xbd14925e	-0.0362724
14	0xbc1a85e0	-0.009431332
15	0xbcf321b6	-0.02967916
16	0xbb1c5b17	-0.0023858005
17	0x3bb9bd09	0.0056682867
18	0x3b77523d	0.0037738227
19	0xbc68866e	-0.014192207
20	0xbcb3167c	-0.021861307
21	0xbc3a36a3	-0.0113655655
22	0xbd002030	-0.031280696
23	0xbcb2afe6	-0.02181239
24	0x3d038735	0.032111365
25	0x3c6accd3	0.01433106
26	0x3c26a646	0.010171479
27	0xbcbd7323	-0.02312619
28	0x3be4fe13	0.006988296
29	0xbcc03c2b	-0.02346619
30	0xbc0e1b15	-0.008673449
31	0x3b845e05	0.0040395283
32	0xbc81d16d	-0.015846932
33	0xbd011a91	-0.031519476
34	0xbbd615f0	-0.006533377
35	0x3c0a01b3	0.008423257
36	0xbbc13782	-0.0058965096
37	0x3cd1ac5e	0.025594886
38	0xbc973502	-0.018457893
39	0x3c453b27	0.012038029
40	0x3c84fbd5	0.016233364
41	0xbc8f606d	-0.017502034
42	0xbc5a12c2	-0.013310136
43	0xbbd4b41b	-0.006491197
44	0x3c6178c8	0.013761707
45	0x3bb00536	0.005371715
46	0x3ca3656d	0.019945825
47	0xbc730ad6	-0.014834126
48	0xbcf6bc86	-0.030119192
49	0xbbbb8584	-0.0057227034
50	0xbc711c45	-0.014716213
51	0x3bff16d4	0.0077847037
52	0xbc78842f	-0.015168234
53	0x3d3d146c	0.046162054
54	0xbba4f0f6	-0.0050336076
55	0xbb4f444f	-0.0031626408
56	0x3d19faab	0.03759257
57	0xbb946009	-0.00452805
58	0x3bd9767a	0.006636438
59	0xbcb77b11	-0.02239755
60	0x3cc91c16	0.024549525
61	0xbc0fa688	-0.0087677315
62	0x3a7df261	0.00096873014
63	0xbc24e023	-0.010063204
64	0xba0ce25a	-0.0005374305
65	0x3c4773ae	0.012173576
66	0x3d2c44b1	0.042057697
67	0xbcde3b68	-0.027127936
68	0x3ca549a6	0.02017672
69	0x3c9393f0	0.018014878
70	0x3b0f14d0	0.0021832474
71	0xbc143ace	-0.009047223
72	0xbb749083	-0.003731758
73	0x3cba6e45	0.022757659
74	0x3c8bf7b9	0.017085897
75	0x3c87acf9	0.016561972
76	0x3c3988f1	0.011324153
77	0x3c8d9f9f	0.017288027
78	0xbb2a4bc8	-0.002598511
79	0x3c64d1cd	0.013966036
80	0xbc7a2b24	-0.015269075
81	0x3c461b63	0.01209149
82	0xbcfff987	-0.031246914
83	0x3ba7f7bb	0.0051259673
84	0xbcb5b9ce	-0.022183325
85	0xbd0f7736	-0.035025798
86	0x3ba17eaf	0.004928432
87	0xbbc9d0ed	-0.006158939
88	0x3cb4197b	0.021984806
89	0xb9a552ff	-0.0003153309
90	0x3ca498f3	0.020092463
91	0xbcf5f570	-0.03002426
92	0x3cb0be58	0.021575138
93	0x3c59ecff	0.013301133
94	0xbc998de4	-0.018744417
95	0xbc9e9784	-0.019359358
96	0xbbaeccde	-0.0053344807
97	0xbc5c07d5	-0.013429602
98	0x3ba441ec	0.0050127413
99	0xbd6ef53b	-0.05833934
100	0xbc3df482	-0.01159394
101	0x3c6e9500	0.014561892
102	0xbc5b3add	-0.013380733
103	0x3b6e68f6	0.003637848
104	0xbd563dd9	-0.052305076
105	0xba4bf054	-0.0007779647
106	0x3aca2b57	0.0015424293
107	0x3c35d6e3	0.011098596
108	0x3b3512d7	0.0027629638
109	0xbbd62c92	-0.006536075
110	0x3c111e7c	0.008857366
111	0xbb1bceda	-0.0023774416
112	0x3c46f98e	0.012144459
113	0x3c05962a	0.008153478
114	0x3b452898	0.003008401
115	0xbc3ed386	-0.011647111
116	0x3c836485	0.016039142
117	0x3c63ed06	0.013911491
118	0xbcde2d54	-0.027121224
119	0x3a800f95	0.0009770269
120	0x3cb73aed	0.022366965
121	0x3bd5a2cd	0.0065196515
122	0x3cd5c0ef	0.026092974
123	0xbc642ccb	-0.013926695
124	0x3c3b94d0	0.011449054
125	0x3ca0061a	0.01953416
126	0x3cb6acbd	0.022299165
127	0x3cf103bf	0.029420732
128	0x3c2131c1	0.009838522
129	0xbb02f791	-0.0019983987
130	0x3c14c8f5	0.009081115
131	0xbc833099	-0.016014384
132	0x3bc4d727	0.0060070935
133	0xbc3a3b2a	-0.011366645
134	0xbca6794f	-0.020321516
135	0x3b30e3fe	0.0026991363
136	0x3ccf2b91	0.025289329
137	0x3c4223f4	0.011849392
138	0xbc96ffb6	-0.01843248
139	0xbc70d405	-0.014698987
140	0xbc647f96	-0.0139464345
141	0x3b05fbd0	0.0020444281
142	0xbc8dd3af	-0.017312853
143	0xbb9a196d	-0.004702738
144	0xbd0b9e0b	-0.03408627
145	0x3b1e170e	0.0024122628
146	0xbc58f1eb	-0.0132412715
147	0x3c2f62fa	0.01070475
148	0xbc226a79	-0.00991308
149	0x3d11a401	0.035556797
150	0x3ba56099	0.0050469157
151	0xbcdb53a9	-0.02677329
152	0x3ac00faf	0.0014653112
153	0xbcb6906d	-0.022285664
154	0xbc508e4d	-0.01272924
155	0xbcd7938d	-0.026315475
156	0xbb6f326b	-0.0036498557
157	0x3ca8b025	0.020591805
158	0x3bb49b49	0.0055116755
159	0xbcd2d94d	-0.025738383
160	0x3c373bb9	0.011183673
161	0x3af6f19b	0.0018840315
162	0xbc191e98	-0.009345673
163	0x3b905d61	0.004405663
164	0xbcda4f4a	-0.026649136
165	0x3d052d46	0.03251388
166	0xbbae3648	-0.0053165294
167	0xbc19d3dc	-0.00938889
168	0xbc76caa6	-0.015062964
169	0xbb142f0f	-0.0022611057
170	0x3bd8d583	0.0066172495
171	0x3c8810e2	0.016609613
172	0x3cb1f2fe	0.021722313
173	0x3c416620	0.011804134
174	0x3c2298df	0.009924143
175	0xbc9c3f72	-0.019073222
176	0x3c1978e8	0.009367205
177	0x3d128372	0.035769887
178	0x3c2b0b7c	0.01043975
179	0xbc54e76b	-0.0129946275
180	0xbcb1222a	-0.021622736
181	0xbb401b7e	-0.0029313262
182	0x3bb77847	0.005599055
183	0xbb25e995	-0.0025316228
184	0x3cca6fd3	0.024711525
185	0xbcb9c5e4	-0.02267737
186	0x3ab16522	0.0013534168
187	0xbc6db61b	-0.014508749
188	0x3c447c08	0.011992462
189	0xbc1bbf7a	-0.009506101
190	0xbd387dd8	-0.04504189
191	0xbc00841c	-0.007843997
192	0xbc549154	-0.012974102
193	0x3c27ddeb	0.01024578
194	0x3b2398d2	0.0024962914
195	0xbd1d25fe	-0.03836631
196	0x3ca92b26	0.020650458
197	0xbc7ac94e	-0.015306784
198	0x3bf0494b	0.007332956
199	0x3b5f4ed1	0.0034074078
200	0xbc6a18ab	-0.014288108
201	0xba608f40	-0.0008566268
202	0x3bedc9c7	0.0072567197
203	0xbc6a6ed0	-0.014308646
204	0x3beba8a5	0.007191735
205	0xbb4f3db3	-0.003162247
206	0xbcda12a8	-0.026620224
207	0xbb82a3fc	-0.0039868336
208	0x3c38545a	0.01125058
209	0x3cebd050	0.028785855
210	0xbc51c028	-0.012802161
211	0x3beb4e94	0.007180998
212	0xbc53f179	-0.01293599
213	0xbcae98fd	-0.021313185
214	0x3c97e973	0.018543934
215	0xbb26f837	-0.0025477537
216	0x3c247281	0.0100370655
217	0x3bfc7d75	0.0077053853
218	0x3c8b9b5f	0.01704186
219	0xbcd72694	-0.026263513
220	0xbc008aab	-0.007845561
221	0xbc9f77df	-0.019466339
222	0x3c644415	0.013932248
223	0x3ce022f3	0.027360415
224	0x3aa84bcd	0.0012839973
225	0x3ba688e0	0.0050822347
226	0xbc03954e	-0.0080312025
227	0xbbf8db6c	-0.0075945165
228	0x3b2420ae	0.0025043893
229	0xbc8956af	-0.016764967
230	0x3c82ab0d	0.015950704
231	0x3c828e28	0.015936926
232	0xbbfa65f4	-0.0076415483
233	0x3d2d6205	0.042329807
234	0x3c8efdb8	0.017454967
235	0xbc032dc3	-0.008006516
236	0x3c9474e6	0.018122148
237	0x3c0cda7d	0.008597014
238	0x3b496340	0.0030729324
239	0x3c5c9b50	0.013464764
240	0x3c70e58b	0.014703165
241	0x3c2b5686	0.0104576405
242	0x3c356144	0.011070553
243	0x3ba5e928	0.005063195
244	0x3c151f7e	0.009101747
245	0x3af7136c	0.0018850393
246	0xbc68aa9c	-0.014200833
247	0xbc3b6125	-0.011436735
248	0x3c84b7a4	0.016200848
249	0x3b8f922d	0.004381439
250	0x3c4abc5e	0.012374012
251	0x3bd08ca9	0.0063644242
252	0x3b033a69	0.002002383
253	0xbc83e445	-0.016100058
254	0x3ce16e4b	0.027518412
255	0x3bb49bd3	0.0055117398

model_8/tf.__operators__.add/AddV2/y f4 [32]
0	0x3b5f4b59	0.003407201
1	0x3ae0942f	0.0017134006
2	0xbc2fd695	-0.010732313
3	0xbcdd8c15	-0.027044335
4	0x3b8d5d79	0.0043141213
5	0x3bc8dccd	0.006129837
6	0xbc6828cb	-0.014169882
7	0x3cf8e0aa	0.030380566
8	0x3a6771bc	0.00088288984
9	0x3c8b821b	0.017029813
10	0xbcd6f6f9	-0.026240813
11	0x3b902ad9	0.004399639
12	0x3c0b33bb	0.00849622
13	0x3c643b83	0.013930204
14	0x3cfc7f42	0.0308224
15	0x3c7bd1d1	0.015369848
16	0x3c90845d	0.01764124
17	0x3ca66c58	0.020315334
18	0x3c631abb	0.0138613535
19	0x3c6220b6	0.013801744
20	0xbc548a7f	-0.012972473
21	0xbbdfbe8d	-0.0068281353
22	0x3cd04473	0.025423264
23	0x3bf6dd07	0.0075336727
24	0x3773d9dc	1.4534653e-05
25	0x3aa8b326	0.0012870773
26	0x3c5ebb09	0.013594397
27	0x3ba1451e	0.0049215695
28	0xbc055272	-0.008137332
29	0x3c0b259d	0.008492854
30	0x3cc42d7d	0.023947472
31	0xbca8d2bd	-0.0206083

model_8/tf.__operators__.add_1/AddV2/y f4 [32]
0	0x3cb2b38c	0.02181413
1	0xbd1b7ec3	-0.037962686
2	0x3d6f4435	0.058414657
3	0x3c0e8d5f	0.008700698
4	0xbd2518ea	-0.040306963
5	0x3defdbac	0.11711821
6	0x3d012516	0.03152951
7	0x3e1ec151	0.15503432
8	0xbce6e3af	-0.02818474
9	0xbdd76ba8	-0.10518581
10	0x3e14e6ef	0.14541219
11	0x3dbd0b8e	0.092307195
12	0x3bcba074	0.006214196
13	0xbd968d02	-0.07351114
14	0x3bef54b2	0.0073037976
15	0x3e27883e	0.16360566
16	0xbd2d2a81	-0.042276863
17	0xbe0a7f88	-0.13525212
18	0xbd1cec50	-0.038311303
19	0xbc211adb	-0.009833063
20	0xbd01a2d9	-0.031649444
21	0x3dfcbe05	0.12340931
22	0xbdaff2aa	-0.08591206
23	0xbca711ee	-0.020394292
24	0x3d9dd9e5	0.07707576
25	0xbe2912d9	-0.16511096
26	0x3e289ef9	0.16466893
27	0xbdae3233	-0.085056685
28	0x3e0c4b19	0.13700522
29	0xbc946453	-0.018114245
30	0x3d4367c9	0.0477064
31	0x3e39a8a7	0.18130742

model_8/tf.math.add_2/Add/y f4 [1, 32]
0	0xbd22d3be	-0.039752714
1	0x3cf31f60	0.029678047
2	0xbc3347dd	-0.0109424265
3	0xbbab5852	-0.0052290345
4	0xbd0ea84a	-0.03482846
5	0xbcebfeef	-0.028808085
6	0x3c2b83cc	0.010468435
7	0x3bd20beb	0.006410112
8	0x39ed8f48	0.00045310915
9	0x3c6d6cc5	0.014491265
10	0xbc98a8ab	-0.018635115
11	0x3d53e70a	0.051734008
12	0xbd73a05e	-0.05947911
13	0xbc31841d	-0.010834721
14	0x3cbe04c4	0.023195632
15	0xbd0644df	-0.032780524
16	0xbe08a8ef	-0.13345693
17	0xbda109ba	-0.07863183
18	0xbca97118	-0.02068381
19	0xbd31cc69	-0.04340783
20	0xbba5fa36	-0.005065228
21	0x3cddb65a	0.027064491
22	0x3cffccdc	0.031225614
23	0xbc11df4a	-0.008903334
24	0x3d176a3d	0.03696655
25	0x3bedb80c	0.007254606
26	0xbd1f18b4	-0.038841918
27	0x3d0e2456	0.03470262
28	0xbb9849bb	-0.004647461
29	0xbcba19c0	-0.022717357
30	0xbd16b929	-0.036797676
31	0xbca63a7f	-0.020291565

model_8/tf.math.add_5/Add/y f4 [1, 32]
0	0x3d9cf07a	0.07663055
1	0x3d53e470	0.051731527
2	0x3e7b8b21	0.24564792
3	0x3d95c455	0.07312838
4	0x3e91d5d7	0.2848346
5	0x3e88c8d2	0.26715714
6	0x3d142d42	0.036175974
7	0x3d44e4ab	0.048069637
8	0x3e88acfe	0.26694483
9	0x3d3a1f2e	0.04543989
10	0x3d7b5f00	0.061369896
11	0x3daa3fc8	0.083129466
12	0x3e75fb8a	0.24021736
13	0x3e0176f3	0.12643032
14	0x3d07e8c7	0.03318098
15	0x3e7c8462	0.24659875
16	0x3e873812	0.26409966
17	0xbd5e1411	-0.054218356
18	0x3db65016	0.08901994
19	0x3d06f07e	0.032944195
20	0x3e02d13d	0.1277513
21	0xbd6367d8	-0.055518955
22	0x3e968636	0.2939927
23	0x3ca27a9f	0.01983386
24	0xbd1a1e5d	-0.037626613
25	0x3d4294ed	0.047505308
26	0x3d9d5890	0.076829076
27	0x3e9284dc	0.2861699
28	0x3d27ef3b	0.040999632
29	0x3dd925be	0.10602902
30	0x3da308ad	0.07960639
31	0x3dc10a48	0.09425789

model_8/tf.math.multiply_10/Mul/y f4 [1, 32]
0	0x3f7a5e80	0.97800446
1	0x3f8ab55b	1.0836595
2	0x3f73dad7	0.952558
3	0x3f7b7a10	0.9823313
4	0x3f771c42	0.96527493
5	0x3f7a05f7	0.9766535
6	0x3f7a920a	0.9787909
7	0x3f77a6e5	0.96739036
8	0x3f753a90	0.95792484
9	0x3f842d0a	1.0326245
10	0x3f7c4a13	0.9855053
11	0x3f7cbe60	0.9872799
12	0x3f71b7ba	0.9442097
13	0x3f88b33a	1.0679696
14	0x3f81e422	1.0147746
15	0x3f7b794d	0.98231965
16	0x3f63844d	0.8887375
17	0x3f70a7fd	0.9400633
18	0x3f81610c	1.0107741
19	0x3f7570f2	0.95875466
20	0x3f7c8595	0.9864133
21	0x3f81d2b9	1.0142432
22	0x3f78c5f0	0.9717703
23	0x3f7ba3d3	0.9829685
24	0x3f829a3e	1.0203321
25	0x3f7a3420	0.97735786
26	0x3f71dcd6	0.94477594
27	0x3f7f7f89	0.9980398
28	0x3f7bd74b	0.98375386
29	0x3f73d564	0.95247483
30	0x3f77ca27	0.96792835
31	0x3f7431ad	0.953883

model_8/tf.math.multiply_22/Mul/y f4 [1, 32]
0	0x3f91d032	1.1391661
1	0x3f8ecc12	1.1156027
2	0x3f9dfd18	1.2342863
3	0x3f89fd58	1.0780439
4	0x3faec717	1.3654507
5	0x3fa52a90	1.2903614
6	0x3f88ff14	1.0702844
7	0x3f85e3d8	1.0460157
8	0x3fa5d969	1.2956973
9	0x3f8ce7b4	1.100821
10	0x3f90e0ba	1.1318581
11	0x3f8a7989	1.081834
12	0x3fa01808	1.2507334
13	0x3f95dd08	1.1708078
14	0x3f8eded9	1.1161758
15	0x3fa388ac	1.2776084
16	0x3fa6afbf	1.3022383
17	0x3f76dc03	0.9642946
18	0x3f92a711	1.1457235
19	0x3f861eac	1.047811
20	0x3f9651a0	1.174366
21	0x3f736c2f	0.9508695
22	0x3fb37080	1.4018707
23	0x3f898f50	1.074686
24	0x3f77c502	0.96784985
25	0x3f89876d	1.0744454
26	0x3f8b1372	1.0865309
27	0x3fac60a3	1.3466991
28	0x3f8dd1e6	1.1079681
29	0x3f8edebe	1.1161726
30	0x3f8ebc5f	1.1151236
31	0x3f91d44a	1.139291
